…
an class="line">I0614 06:47:37.005156  6183 net.cpp:84] Creating Layer res4b_res4b_0_split</span><br><span class="line">I0614 06:47:37.005290  6183 net.cpp:406] res4b_res4b_0_split &lt;- res4b</span><br><span class="line">I0614 06:47:37.005432  6183 net.cpp:380] res4b_res4b_0_split -&gt; res4b_res4b_0_split_0</span><br><span class="line">I0614 06:47:37.005589  6183 net.cpp:380] res4b_res4b_0_split -&gt; res4b_res4b_0_split_1</span><br><span class="line">I0614 06:47:37.005784  6183 net.cpp:122] Setting up res4b_res4b_0_split</span><br><span class="line">I0614 06:47:37.005924  6183 net.cpp:129] Top shape: 128 256 6 18 (3538944)</span><br><span class="line">I0614 06:47:37.006058  6183 net.cpp:129] Top shape: 128 256 6 18 (3538944)</span><br><span class="line">I0614 06:47:37.006186  6183 net.cpp:137] Memory required for data: 3266455552</span><br><span class="line"># 以下为两个分支，resnet_v2 residual block</span><br><span class="line"># 第一个分支：conv 1*1，channel翻倍（我这里翻一半256-&gt;384），feature map stride为2（6 * 18 -&gt; 3 * 9）</span><br><span class="line">I0614 06:47:37.006321  6183 layer_factory.hpp:77] Creating layer res5a_branch1</span><br><span class="line">I0614 06:47:37.006469  6183 net.cpp:84] Creating Layer res5a_branch1</span><br><span class="line">I0614 06:47:37.006597  6183 net.cpp:406] res5a_branch1 &lt;- res4b_res4b_0_split_0</span><br><span class="line">I0614 06:47:37.006743  6183 net.cpp:380] res5a_branch1 -&gt; res5a_branch1</span><br><span class="line">I0614 06:47:37.010433  6183 net.cpp:122] Setting up res5a_branch1</span><br><span class="line">I0614 06:47:37.010591  6183 net.cpp:129] Top shape: 128 384 3 9 (1327104)</span><br><span class="line">I0614 06:47:37.010730  6183 net.cpp:137] Memory required for data: 3271763968</span><br><span class="line"># 第二个分支：两个base building block，第一个要负责channel翻倍和feature map stride为2</span><br><span class="line"># BN</span><br><span class="line">I0614 06:47:37.010865  6183 layer_factory.hpp:77] Creating layer bn5a_branch2a</span><br><span class="line">I0614 06:47:37.011039  6183 net.cpp:84] Creating Layer bn5a_branch2a</span><br><span class="line">I0614 06:47:37.011173  6183 net.cpp:406] bn5a_branch2a &lt;- res4b_res4b_0_split_1</span><br><span class="line">I0614 06:47:37.011315  6183 net.cpp:380] bn5a_branch2a -&gt; res5a_branch2a</span><br><span class="line">I0614 06:47:37.011767  6183 net.cpp:122] Setting up bn5a_branch2a</span><br><span class="line">I0614 06:47:37.011909  6183 net.cpp:129] Top shape: 128 256 6 18 (3538944)</span><br><span class="line">I0614 06:47:37.012042  6183 net.cpp:137] Memory required for data: 3285919744</span><br><span class="line"># scale</span><br><span class="line">I0614 06:47:37.012198  6183 layer_factory.hpp:77] Creating layer scale5a_branch2a</span><br><span class="line">I0614 06:47:37.012343  6183 net.cpp:84] Creating Layer scale5a_branch2a</span><br><span class="line">I0614 06:47:37.012476  6183 net.cpp:406] scale5a_branch2a &lt;- res5a_branch2a</span><br><span class="line">I0614 06:47:37.012619  6183 net.cpp:367] scale5a_branch2a -&gt; res5a_branch2a (in-place)</span><br><span class="line">I0614 06:47:37.012815  6183 layer_factory.hpp:77] Creating layer scale5a_branch2a</span><br><span class="line">I0614 06:47:37.013126  6183 net.cpp:122] Setting up scale5a_branch2a</span><br><span class="line">I0614 06:47:37.013267  6183 net.cpp:129] Top shape: 128 256 6 18 (3538944)</span><br><span class="line">I0614 06:47:37.013396  6183 net.cpp:137] Memory required for data: 3300075520</span><br><span class="line"># ReLu</span><br><span class="line">I0614 06:47:37.013535  6183 layer_factory.hpp:77] Creating layer res5a_branch2a_relu</span><br><span class="line">I0614 06:47:37.013675  6183 net.cpp:84] Creating Layer res5a_branch2a_relu</span><br><span class="line">I0614 06:47:37.013814  6183 net.cpp:406] res5a_branch2a_relu &lt;- res5a_branch2a</span><br><span class="line">I0614 06:47:37.013959  6183 net.cpp:367] res5a_branch2a_relu -&gt; res5a_branch2a (in-place)</span><br><span class="line">I0614 06:47:37.014320  6183 net.cpp:122] Setting up res5a_branch2a_relu</span><br><span class="line">I0614 06:47:37.014461  6183 net.cpp:129] Top shape: 128 256 6 18 (3538944)</span><br><span class="line">I0614 06:47:37.014588  6183 net.cpp:137] Memory required for data: 3314231296</span><br><span class="line"># 问题出在这 conv 3*3 pad 1 stride 2 channel 256-&gt;384，这里输出blob（top layer）和输入blob（bottom layer）的大小已经完全不一致</span><br><span class="line"># 但是我在prototxt中，仍给这两个变量命为同一个名，导致两个在进行inplace运算时，caffe尝试reshape而报错</span><br><span class="line">I0614 06:47:37.
…
